GAIL/dec1_discriminator_1950.pth (torch, 1919 bytes, 3 tensors)

fc1.weight f4 [5, 5]
00000000: ed36 853e 72da 463e 82f3 5f3e 74ff 2ebe
00000010: 2f38 b33d 3939 3bbf a90f 2cbf 68c0 bc3e
00000020: c3f7 a43e c1f9 a9be 2d93 c43d b1a2 cabe
00000030: 9509 253f ee3b 23bf 74fd 2abe b700 82be
00000040: 79ac 29bf aca6 9ebe 1ef3 02bf c5d7 6b3e
00000050: 1743 963e aebe 123e 9fc6 33bf 83c4 10bf
00000060: 991d 283f
0.26018468 0.19419268 0.21870235 -0.17089635 0.087509505 -0.7313419 -0.67211396 0.36865544
0.32220277 -0.3319836 0.09598384 -0.3957725 0.64467746 -0.6376332 -0.16698247 -0.2539117
-0.662788 -0.30986536 -0.5115222 0.23031528 0.2934806 0.14330551 -0.70224947 -0.56549853
0.6567016

fc1.bias f4 [5]
00000000: fbe4 8a3e 091e c1bd d2ac 3fbe 7c8d c5be
00000010: 8ef0 923e
0.27127823 -0.09429557 -0.1871827 -0.38584507 0.28699154

fc2.weight f4 [1, 5]
00000000: 8034 76be 6ed6 35bf 0881 5e3f 0cff 82be
00000010: ae2a 773f
-0.24043465 -0.7103032 0.86915636 -0.2558521 0.965495
