GAIL/dec1_imitator_1950.pth (torch, 2415 bytes, 5 tensors)

fc1.weight f4 [4, 4]
000000 92 2f d3 3e 9c 1f 1b 3f 7a fa 1e bf 47 ef cc 3e
       0.4124723 0.6059511 -0.62100947 0.40026304
000010 91 fd 01 3d af 2c 06 bf 9f 05 4e be 8d 87 80 bc
       0.03173596 -0.5241193 -0.20119332 -0.015689636
000020 1a d5 c6 be 3b 06 2c be b6 34 cb 3e cc 9e 54 bf
       -0.3883446 -0.16799252 0.39688653 -0.83054805
000030 93 f9 40 bf af b0 19 3f 70 57 18 bf 94 ef cd 3e
       -0.7538082 0.6003522 -0.5950842 0.40221846

fc1.bias f4 [4]
000000 40 2c ad 3c 60 d9 48 3d 60 23 31 3e 78 0e 86 be
       0.021139264 0.04903543 0.1729865 -0.26182914

fc2.weight f4 [3, 4]
000000 ef 4c 03 bf 6e 42 18 bf 10 c5 5b bf e1 61 d2 3e
       -0.51289266 -0.59476364 -0.8584757 0.410903
000010 ea c7 14 3f 44 3c 94 be eb 71 e1 3e c4 c6 b7 be
       0.58117545 -0.2895223 0.44032225 -0.35893834
000020 78 2f a8 be 60 ce cb 3e 16 9d e9 bd ab 94 98 be
       -0.32848716 0.3980589 -0.11406915 -0.29800925

fc2.bias f4 [3]
000000 a0 f2 34 bd b4 54 61 be e8 e5 b3 bd
       -0.044176698 -0.22004968 -0.087840855

fc3.weight f4 [1, 3]
000000 ef ac 3a 3e 79 20 27 3f 76 a5 eb be
       0.18230031 0.65283924 -0.46024674
